…
    "from keras.layers.normalization import BatchNormalization\n",
    "from keras.layers.advanced_activations import LeakyReLU"
   ]
  },
  {
   "cell_type": "code",
   "execution_count": 208,
   "metadata": {},
   "outputs": [
    {
     "name": "stdout",
     "output_type": "stream",
     "text": [
      "Model: \"sequential_1\"\n",
      "_________________________________________________________________\n",
      "Layer (type)                 Output Shape              Param #   \n",
      "=================================================================\n",
      "conv2d_1 (Conv2D)            (None, 100, 100, 32)      896       \n",
      "_________________________________________________________________\n",
      "max_pooling2d_1 (MaxPooling2 (None, 50, 50, 32)        0         \n",
      "_________________________________________________________________\n",
      "dropout_1 (Dropout)          (None, 50, 50, 32)        0         \n",
      "_________________________________________________________________\n",
      "conv2d_2 (Conv2D)            (None, 50, 50, 64)        18496     \n",
      "_________________________________________________________________\n",
      "max_pooling2d_2 (MaxPooling2 (None, 25, 25, 64)        0         \n",
      "_________________________________________________________________\n",
      "dropout_2 (Dropout)          (None, 25, 25, 64)        0         \n",
      "_________________________________________________________________\n",
      "conv2d_3 (Conv2D)            (None, 25, 25, 128)       73856     \n",
      "_________________________________________________________________\n",
      "leaky_re_lu_1 (LeakyReLU)    (None, 25, 25, 128)       0         \n",
      "_________________________________________________________________\n",
      "max_pooling2d_3 (MaxPooling2 (None, 13, 13, 128)       0         \n",
      "_________________________________________________________________\n",
      "dropout_3 (Dropout)          (None, 13, 13, 128)       0         \n",
      "_________________________________________________________________\n",
      "flatten_1 (Flatten)          (None, 21632)             0         \n",
      "_________________________________________________________________\n",
      "dense_1 (Dense)              (None, 64)                1384512   \n",
      "_________________________________________________________________\n",
      "leaky_re_lu_2 (LeakyReLU)    (None, 64)                0         \n",
      "_________________________________________________________________\n",
      "dense_2 (Dense)              (None, 128)               8320      \n",
      "_________________________________________________________________\n",
      "dense_3 (Dense)              (None, 256)               33024     \n",
      "_________________________________________________________________\n",
      "dense_4 (Dense)              (None, 7)                 1799      \n",
      "=================================================================\n",
      "Total params: 1,520,903\n",
      "Trainable params: 1,520,903\n",
      "Non-trainable params: 0\n",
      "_________________________________________________________________\n"
     ]
    }
   ],
   "source": [
    "model = Sequential()\n",
    "model.add(Conv2D(32, kernel_size=(3, 3),activation='relu',input_shape=(100,100,3),padding='same'))\n",
…
